best_weights.npy (npy, 1280 bytes, 1 tensors)

array f8 [12, 12]
00000000: e694 4752 8725 ebbf 0c6d 51f5 d94f d3bf
00000010: 58c7 f795 652d cdbf 5870 e5bd 24c2 e2bf
00000020: 9461 6769 756b ebbf 604b 7720 2d61 ca3f
00000030: 487c 1201 eed1 dfbf 08c6 3a99 1ef6 d33f
00000040: 8cd1 92bc 2742 e13f c02f e4bc bf9d cabf
00000050: 5016 8a7e ba97 e33f 9018 415c 2544 b73f
00000060: 1460 f737 b424 ed3f 148d 6c4d 8b12 dcbf
00000070: 4003 09f8 0b16 eabf d49a 6588 f0ce d73f
00000080: c0e6 9fc3 8d0d a43f c016 0630 3978 af3f
00000090: 46d3 a927 58c4 e5bf b89c b5ee 284f dcbf
000000a0: ec49 123b a5bd d93f 10da 7f9b 4ec9 eebf
000000b0: 0cae 4bb1 509a e1bf 5af4 e82a aee4 e3bf
000000c0: 88e3 c24e e6e7 ca3f 20a3 eb56 9de1 ae3f
000000d0: a41e 0829 1a13 ed3f 84e1 a654 2030 dd3f
000000e0: e0f3 1985 981b c1bf 90c7 7882 96ff d5bf
000000f0: e0dd 3aed 6ba0 d43f fced 8b97 7e1f e23f
00000100: 00a7 4139 66d3 853f e2ce 3d35 9d72 eebf
00000110: 00bf 71dc b954 a93f 686b d875 1737 d13f
00000120: d04f b223 f363 ddbf 9aac ce13 a3c2 ed3f
00000130: 541d e6ca eb4a e1bf e84a eb3a 3b57 d13f
00000140: 80c5 03e9 ee4f b13f 98b7 4855 7f10 e53f
00000150: 30b2 88b9 c873 c23f ceef 34e7 329d e23f
00000160: 80b2 8925 d672 a8bf 7e07 0d5f 0aa6 e63f
00000170: 6412 402c 49c5 e23f 5ce5 5b5e 4313 e53f
00000180: b0c9 611b 4ac1 bfbf 9cbb 6c3b 6bed e0bf
00000190: a899 d9c5 b948 d73f a0ad 9f31 26a7 ec3f
000001a0: b065 e96b eecc bdbf b005 170c 4fde e83f
000001b0: 6093 488f 928a e5bf 409e 6343 0211 eabf
000001c0: 8006 43a0 7d43 b13f 54d1 7cfe 3125 da3f
000001d0: c07a 79c3 587a d53f 9eff bb7e fbb4 e73f
000001e0: d6d1 f67a 4392 ecbf e213 3c22 71a8 eebf
000001f0: ccf7 d2c3 e83c ef3f 3c11 1247 5584 ecbf
00000200: 1035 0b08 cb91 e63f 2eae 2dc1 f950 e53f
00000210: b0a3 b1c5 0c13 be3f 2e2f 7d86 51d1 e4bf
00000220: d018 fb8d 862c bcbf 94b5 cab5 8a1d ec3f
00000230: c02e c49f 8ce7 bbbf 306f 040b 7863 eebf
00000240: 22e0 7835 2cdd e93f 1e58 28b9 63ee efbf
00000250: a863 df54 767c e5bf 7ea8 a80a 6982 e73f
00000260: 5a28 e7db 7b5a e2bf 38c3 bf00 2b73 ee3f
00000270: ea70 774f 64c7 e7bf 34b5 caaf 6dfb e63f
00000280: 22c2 0411 8d98 e7bf 584c dd0d 3b8d c33f
00000290: f0b7 3cb5 157e e83f 5a86 d5af 1ff6 e63f
000002a0: d853 fe1b 87d9 cabf 64ef cdeb b083 ee3f
000002b0: a873 0e05 6cb4 eabf 40f0 e9fe d24c dabf
000002c0: 5414 3a25 d69c ea3f 284e e3c8 ca56 ec3f
000002d0: 2840 904a d9c2 cfbf 56d7 412b 883a ef3f
000002e0: 00f4 3b5f 8a98 91bf 10f9 4d28 be75 ccbf
000002f0: 4496 c6ad abeb ed3f 84dc 47a7 eb5a dfbf
00000300: e0fd 3305 2db5 a0bf 0820 037b e5ee c8bf
00000310: 889c e299 cbdb debf e4b4 563e 9c16 e33f
00000320: e49a 4e49 ec39 ed3f 28d5 25a6 7a5b ed3f
00000330: 14aa e699 07f6 ebbf c026 0910 966e 953f
00000340: 00c9 810c 4011 afbf 20fa 1a5c 9321 ec3f
00000350: c030 1537 9343 ab3f ce8e 71ef cf8c e73f
00000360: 0016 c300 4c05 b53f 807e d8cb 4317 d83f
00000370: 24ad f51f 4f8d e6bf 2470 39c7 29c3 e93f
00000380: fcb7 60fb 6e04 d1bf 40a0 5dee 01fd eebf
00000390: c4c9 aee3 b116 d03f 04c8 8946 ebd1 d93f
000003a0: 6050 978b a5fd c93f a044 b478 ecac a6bf
000003b0: a4e5 f085 cead e1bf e2f3 69e1 6caf eebf
000003c0: 88e8 c562 391f ebbf e067 c2bd bd94 a53f
000003d0: 8419 5978 f471 eebf 5a5d fdcd d4ce ecbf
000003e0: e066 27bd 61eb a03f 8eee abaa 8913 efbf
000003f0: ce6c 92aa 0679 eabf 0040 5cab fb91 d13f
00000400: c02b 0277 e9b1 d23f 301b 8021 b3d4 dcbf
00000410: c0b7 6c1f c385 ae3f 0aef 3585 b0bc eebf
00000420: f810 d79e d4c5 d9bf 3a85 7bf8 5c5d e83f
00000430: 4e8f 158d b0ec e83f 14f0 8df1 9a14 e7bf
00000440: 70b0 eab3 5770 ecbf 1852 3e87 a7fc d7bf
00000450: 2ef7 b799 7b76 ecbf 1ea0 15f7 fe44 e63f
00000460: c684 7457 9238 ea3f f2a8 5c0e 401b e03f
00000470: dced 958f defa dabf d4f0 7d3f 0bd2 d3bf
-0.8483311278365846 -0.30174874264567175 -0.22794790098810824 -0.5861991604720158 -0.8568675097149474 0.2060905846143113 -0.4971880922766485 0.3118969437010439
0.5393255885197035 -0.20793911669932008 0.6122715445969309 0.09088357450773032 0.910730466183852 -0.4386318451017399 -0.8151912540853132 0.3720055896759906
0.039165907030065394 0.06146410666683044 -0.6802178167987243 -0.4423315364023881 0.40220003861136777 -0.9620736157510823 -0.5500873053364912 -0.6216650808415907
0.21020201535955274 0.06031505285301919 0.9085818101311429 0.45606239573273677 -0.1336546564015455 -0.34372484914194334 0.32229135672556986 0.5663445434469732
0.010657118437126467 -0.9514909782287442 0.04947453323336326 0.2689875269731403 -0.4592254494284562 0.9300094019757978 -0.5403956377858017 0.2709491801626158
0.06762593449436416 0.6582638421730165 0.14415844973827197 0.5816893115766051 -0.04775113304353784 0.7077686172926716 0.5865827430976194 0.6586014597843746
-0.12404311340814078 -0.5289817963256271 0.363813822949306 0.895403954430936 -0.11640825399935895 0.7771373020297485 -0.6731655882364116 -0.8145762745088589
0.06743607676164665 0.40852022030164403 0.3355924519473028 0.7408425784378669 -0.8928544427531573 -0.9580617588659346 0.9761852097215011 -0.8911539447877099
0.7052970082383201 0.666134717275275 0.1174781782771237 -0.6505515696276001 -0.11005440679864198 0.8786061812040082 -0.10900191212220545 -0.949642201917845
0.808248619497139 -0.9978502861365575 -0.6714431436222315 0.7346692283802125 -0.5735453886966397 0.9515585913305591 -0.7430898239213353 0.7181919511255388
-0.7373719532388956 0.15274751831984434 0.7653912105358796 0.7175444063434029 -0.20976342074268817 0.953575573497329 -0.8345241640814622 -0.4109389771836085
0.8316450812423093 0.8855947421638506 -0.2481338132934081 0.9758950085513145 -0.0171834583879793 -0.22234322517392302 0.935018386274074 -0.48992434822088904
-0.03263226212038339 -0.19479053980308003 -0.4821652415070692 0.5965100495865525 0.9133206779268588 0.9174168820451643 -0.8737829213981194 0.020929665306801182
-0.06067848351166738 0.8790985869343935 0.05324993178746373 0.7359389950401807 0.08211207407574506 0.37641997248463355 -0.7047496437275282 0.8050736323452878
-0.26589560078252794 -0.9683847098904224 0.251385185572101 0.4034374417161646 0.2030531818005583 -0.04428805325927354 -0.5524666420016513 -0.9589142229666516
-0.8475615433847148 0.042150430120457605 -0.9514105177448049 -0.9002479575382651 0.03304582056052907 -0.9711349805288181 -0.8272736865505068 0.2745351003113683
0.2921088850204647 -0.4504821612503518 0.05961427458383595 -0.9605333902140683 -0.4026996184513929 0.761396870915781 0.7788927798796779 -0.7212652891025777
-0.8887136949538341 -0.37479580123297884 -0.8894632341686923 0.6959223581188814 0.8194057186230104 0.5033264427668469 -0.42156185171162774 -0.30969506454836204
